model/model.pth (torch, 16787 bytes, 4 tensors)

linear1.weight f4 [256, 11]
000000 41 26 43 3d 4b d8 43 3e 33 f0 9c bd 50 ce b0 3d
       0.047643904 0.19125478 -0.07663002 0.08633101
000010 45 95 63 be fe 9d 2e be ff 3e 0d 3e 59 f5 d6 be
       -0.2222491 -0.17052457 0.13793562 -0.4198406
000020 83 ec ac bd a0 14 c2 bd d6 53 19 be c7 77 d1 bd
       -0.084435485 -0.0947659 -0.14973387 -0.10227924
000030 e1 99 09 be 91 43 67 3e ac f5 df bd ce 99 d9 bc
       -0.13437606 0.22584368 -0.1093553 -0.026562598
000040 10 74 b1 be 9f 58 92 be 98 55 4f be c4 6c 4b bd
       -0.3465886 -0.28583238 -0.20247495 -0.049664274
000050 01 39 b8 bc 2f 9f 42 bd e9 e1 18 be 3e 34 b0 3c
       -0.02248812 -0.04751509 -0.14929928 0.021509286
000060 94 7b 10 3d c3 ca 06 be 03 62 3d 3e 95 86 93 be
       0.035274103 -0.13163285 0.1849442 -0.28813615
000070 04 d5 ad 3e b7 28 a9 3e 43 aa 55 be 67 4e 9d be
       0.3395158 0.33038875 -0.20865731 -0.3072388
000080 b3 96 50 be 93 66 38 be 7e d0 6d 3e a5 92 2d be
       -0.20369987 -0.18007879 0.23224065 -0.16950472
000090 a4 f4 a5 3e 73 dc ea 3e c6 4c 8b 3c 7b a3 1e 3e
       0.32413208 0.45871314 0.017004382 0.1549205
0000a0 1d 12 23 be 47 24 01 be b1 d4 c6 3c 70 bf 83 be
       -0.15924878 -0.12611495 0.024271341 -0.25731993
0000b0 b3 fc 26 bd 2b 7d 7c 3e 4d 15 b3 3e 52 e9 15 3e
       -0.040768337 0.24657123 0.3497719 0.14639786
0000c0 00 f3 4c 3e 6b 55 22 3e da c3 b8 bd 9b 9b cf 3c
       0.20014572 0.15852897 -0.09021731 0.025342753
0000d0 17 27 8e 3e b0 18 ce 3e 2a 0e 06 3f 21 3e 92 be
       0.27764198 0.4025321 0.5236536 -0.28563026
0000e0 ce 14 80 be 00 4d 15 be 62 05 6c 3e 43 82 be 3e
       -0.25015873 -0.14580154 0.23048928 0.37208757
0000f0 a6 46 81 be 20 18 85 3a 8b e3 02 bf 6a e7 84 be
       -0.25249213 0.0010154285 -0.51128453 -0.25957805
000100 ec e2 ea 3e 30 be 0e 3f ad b9 f0 3d 60 92 2d 3f
       0.45876253 0.55758953 0.11754165 0.67801476
000110 4b 33 df be ca fc a4 3d 20 7e 0c 3e 59 4a cc 3d
       -0.4359382 0.08056028 0.13719988 0.09975118
000120 a1 09 97 bd 0c 38 04 3e 40 49 51 3e 1e ca e4 be
       -0.073748834 0.12912005 0.20438099 -0.44685453
000130 19 c7 ad be 31 45 3a 3d 51 80 88 be b4 36 86 be
       -0.33940962 0.045476142 -0.26660398 -0.2621361
000140 47 5c d9 be ba b9 c6 3e a0 ed b2 bd 99 6c 8f be
       -0.42453215 0.38813573 -0.087367296 -0.2801254
000150 cf e0 b2 be c4 0e e5 3e 22 d3 32 bf 62 e9 f8 be
       -0.3493714 0.44737828 -0.69853413 -0.48615557
000160 14 e6 a7 bc 4f f1 d3 3d b3 bd fd 3b 84 7a 32 3e
       -0.020495452 0.1034876 0.007743561 0.17429549
000170 40 e2 71 3c e7 ec 02 be ae 34 c5 bc e3 b9 7e 3e
       0.014763415 -0.12785684 -0.024072971 0.24875598
000180 5d c6 01 bd 7f 18 22 3e 2a be c8 3e cc 5e 66 3d
       -0.031683315 0.15829657 0.39207584 0.05624275
000190 39 9a 9b 3e 87 eb 21 bd 9b a4 12 be 49 e6 b3 3c
       0.303911 -0.039531257 -0.14320605 0.021960394
0001a0 35 78 e7 be 4a b8 33 be 88 26 5a 3e 50 d8 31 be
       -0.45208898 -0.1755077 0.21303761 -0.17367673
0001b0 f4 29 2f 3e 9d 86 75 be e2 1e 9c be 3e da a5 3e
       0.17105848 -0.23977132 -0.30492312 0.32393068
0001c0 93 0b 79 3e 2d 90 dc bd fb 74 d8 3d c8 40 34 bd
       0.24320821 -0.10769687 0.10569187 -0.044007093
0001d0 02 31 08 3e 00 ca a0 be 7b f0 9c be 42 51 9b bc
       0.13299945 -0.31404114 -0.30652222 -0.018959645
0001e0 8e 12 ce be ff 51 8a be 89 e2 9a 3e 49 97 83 be
       -0.4024853 -0.27015683 0.30250958 -0.2570136
0001f0 38 d0 eb bb 69 a6 2b 3d a4 a0 86 3d 01 91 27 3e
       -0.0071964525 0.041906748 0.065736085 0.16363908
000200 e3 2f 3a bc 68 44 62 bc c8 ba cc 3c c0 21 d0 bd
       -0.011363956 -0.013810255 0.024991408 -0.10162687
000210 9b 2a 14 bf fc e0 8a 3e a1 b6 5d 3d 73 ca b4 3e
       -0.5787751 0.27124774 0.054129247 0.35310706
000220 10 79 16 bc eb 9c 3c bc 45 aa 69 3c b7 e5 61 3e
       -0.009184137 -0.0115120215 0.014261787 0.22060286
000230 8d 67 7e bd de 41 b5 be ad de 3d 3e 6f 49 46 3d
       -0.062110472 -0.35401815 0.18541975 0.048409875
000240 15 ff c0 3d a0 9c 89 3e 88 ef 4d be b6 5c 0b 3d
       0.09423653 0.26877308 -0.20110905 0.034023963
000250 05 6d 60 3e d7 41 2f be 9e 7e 83 bd c1 f7 f4 bd
       0.21916588 -0.1711496 -0.06420635 -0.11961318
000260 d8 fe 1f 3f 58 82 09 3f 4d 58 7d 3d d3 82 d5 be
       0.62498236 0.53714514 0.06185179 -0.41701373
000270 0b 36 32 3c 4d bb 0b be 75 0c 12 be fe 8f 3d be
       0.010877143 -0.13645668 -0.14262564 -0.1851196
000280 f5 a9 4d be 46 2f 49 3e 05 d1 37 3e de 98 8b 3e
       -0.20084365 0.1964694 0.17950828 0.27265066
000290 10 d8 8e 3e 13 94 3f 3d f4 5e 6b bd 51 b0 a8 3e
       0.27899218 0.046772074 -0.0574636 0.3294702
0002a0 02 ab a6 3d db aa 3d be 77 b2 a9 be 03 eb c5 3c
       0.08138086 -0.18522207 -0.3314397 0.024159914
0002b0 ae 2b 84 3e 74 d5 b4 bd 34 a8 a3 3e 1b ac aa 3e
       0.25814575 -0.088297755 0.31964266 0.3333443
0002c0 89 2c a6 3d f5 9c b3 be c4 78 e2 3d 2e b1 84 be
       0.08113963 -0.35080686 0.110581905 -0.25916427
0002d0 fc b8 d5 bd e8 07 4b be d2 ef 56 3e 69 08 be be
       -0.104356736 -0.19827235 0.20989922 -0.3711579
0002e0 aa e0 3b 3e 54 bd f3 3d 34 74 13 be f6 b0 29 3e
       0.18347421 0.11901346 -0.14399797 0.16571411
0002f0 04 d6 66 3e 51 91 01 be 2b a1 1a be 3d ed 7f 3e
       0.22542578 -0.1265309 -0.15100543 0.24992843
000300 a2 f1 9b be 04 0a 41 be c7 42 b1 be e7 c1 46 be
       -0.3045779 -0.18851477 -0.3462126 -0.19409905
000310 15 75 3b 3e 4e ce 8d be aa 0c dd 3e 9d 22 cd 3e
       0.18306382 -0.2769646 0.43173724 0.4006547
000320 03 2f f9 be eb ec 20 3e a5 66 84 bc 8e 16 4b be
       -0.4866868 0.15715377 -0.016162226 -0.19832823
000330 5f 87 0a bd 80 1f 54 3d e3 e7 6a 3e c5 66 e6 3e
       -0.033820506 0.051787853 0.2294002 0.45000282
000340 13 95 f1 3e 89 ad 18 3f f7 d4 c5 3e 02 31 e4 bd
       0.47184047 0.59639794 0.38639042 -0.1114216
000350 21 37 41 3e 6f f9 15 be 77 41 8e 3d 92 b3 ae 3d
       0.18868686 -0.14645933 0.0694608 0.08530344
000360 71 29 cf bd d0 41 53 3e ec 8a 68 be 27 b8 89 be
       -0.10115326 0.20630574 -0.22709244 -0.2689831
000370 f4 2e 58 bd 09 b3 c9 be 7b e1 d2 3e 01 a1 38 bd
       -0.052779153 -0.39394405 0.41187653 -0.04507542
000380 33 f7 a2 3e b0 6b 7c 3e 52 c0 ec bc c9 a9 97 be
       0.31829223 0.24650455 -0.0289003 -0.29621723
000390 e8 fc 81 bd e2 77 1b be c2 e6 cc be ed ca 61 bd
       -0.06347066 -0.1518245 -0.40019804 -0.055125166
0003a0 5e d1 04 bf 0e f5 b6 3e de e9 e9 bc 64 83 2e be
       -0.5188197 0.35733837 -0.0285539 -0.17042309
0003b0 38 2a 2d 3e ee 93 4a be d0 11 7b be 1d d7 82 3e
       0.16910636 -0.19782993 -0.24518514 0.25554743
0003c0 be 05 26 3e b9 88 b5 3e c8 2b 3f 3e 09 02 51 3e
       0.16213128 0.35455874 0.18669045 0.20410933
0003d0 e6 02 88 be bd 66 f3 bc c7 ac 26 be 6c 57 32 be
       -0.2656471 -0.029712075 -0.16276847 -0.17416161
0003e0 63 e7 04 bc f8 e5 00 3e 69 b4 27 3e bf 5b 9f 3d
       -0.0081118075 0.12587726 0.16377415 0.07781171
0003f0 07 e4 e1 bd 92 d5 37 be 08 c3 3c bd 00 90 a6 ba
       -0.11029821 -0.17952564 -0.046084434 -0.001270771

linear1.bias f4 [256]
000000 d9 27 f5 bc 80 e8 6a be d4 10 54 be b5 3c 6e 3e
       -0.029926227 -0.22940254 -0.20709544 0.23265345
000010 b4 16 74 bb e7 b6 6f bd 3f 22 a7 3e aa 00 8c 3d
       -0.0037244977 -0.05852404 0.32643315 0.06836064
000020 a9 0f d7 3e 1a e3 b7 be 07 12 37 3e 81 d6 85 be
       0.42004135 -0.35915452 0.1787797 -0.26140216
000030 63 5b 52 be b4 2f a9 3e bf 2c 04 3c 86 e5 ac 3e
       -0.20542674 0.33044207 0.008067309 0.33768862
000040 53 2a 99 be 0b 6c 3d be 58 6d 1d be a2 52 8b bd
       -0.29915103 -0.18498246 -0.15373743 -0.0680287
000050 28 d6 15 3e 4a f1 58 bd 39 b7 99 3e a1 5e 56 be
       0.14632475 -0.052964486 0.300226 -0.20934536
000060 fc 00 27 be 8d ea 0c 3d 57 4f f6 3d fe d8 c3 3e
       -0.1630897 0.034403373 0.120268516 0.3825149
000070 0e ec 3d 3e a6 e0 23 be b3 17 0b be b5 3f 4b be
       0.18547079 -0.16003665 -0.1358326 -0.19848521
000080 c7 81 91 3e f3 b8 41 be 3a 9b 6b bb 98 21 e9 3d
       0.28419325 -0.18918209 -0.0035950677 0.113833606
000090 8f af e9 bc 0a 19 3c 3e 61 22 04 3e 72 f7 ac be
       -0.028526096 0.18368927 0.1290374 -0.33782536
0000a0 64 81 45 be 14 24 02 be c5 0f c7 bd 3e 5f d2 be
       -0.1928764 -0.12709075 -0.09719805 -0.4108829
0000b0 6a 3f 02 3e 3e 11 cc be f9 1c 5c be 7f 04 81 be
       0.12719503 -0.39856905 -0.21495427 -0.25198743
0000c0 b0 37 a2 3e b5 d2 f8 3d cf db a1 be a8 c0 a4 be
       0.3168311 0.12149564 -0.31613013 -0.32178235
0000d0 e1 38 62 be 83 a1 08 3c 4c a9 93 bd 5e 17 65 3e
       -0.2209201 0.008339289 -0.07210025 0.22372195
0000e0 5b 9d 81 be 4a 5d fd 3d 7a 7f d4 bd 4d ee 10 bd
       -0.25315365 0.12371309 -0.10375877 -0.03538351
0000f0 47 74 e2 bd 57 28 68 be 0d 5b 54 be 1c c7 2b 3d
       -0.110573344 -0.22671638 -0.20737858 0.041937932
000100 19 4f 63 3b a2 ab 18 be 2e 2b 98 bc 7a 58 d2 3d
       0.0034684597 -0.14909223 -0.018575277 0.10270782
000110 8b 52 95 be 02 f9 85 be 60 a0 e0 3d 1f 95 af 3d
       -0.29164538 -0.2616654 0.10968089 0.085733645
000120 70 35 8c 3e b1 c4 17 3d b4 a4 f6 bd de 2c 59 be
       0.2738452 0.037052814 -0.120431334 -0.21208522
000130 16 0a a3 be b8 95 0f be 9a 28 d2 3d af 64 e8 bd
       -0.31843632 -0.14021957 0.102616504 -0.11347329
000140 84 5d ba bd 00 76 43 be 0d 84 c0 3e a7 df 61 be
       -0.09099868 -0.19087982 0.37600747 -0.22057973
000150 f4 8e 96 be 35 03 49 be 92 ff 81 3e 94 2f 26 3e
       -0.2940594 -0.1963013 0.25390297 0.16229087
000160 7e 8b 56 3e b8 01 9e be 4e 14 02 be 12 3f 17 be
       0.2095165 -0.30860686 -0.12703058 -0.14770153
000170 e6 6e 6f bd 5d 7e d6 3c d3 e8 90 be ff c7 f2 bd
       -0.05845537 0.026183302 -0.2830263 -0.118545525
000180 57 05 3b 3e 10 01 a1 3d 4b f9 2f be 66 ba ab bd
       0.18263756 0.07861531 -0.17184941 -0.08385162
000190 2d 40 b2 be 37 65 81 3e 70 e4 9c be c9 b4 6c bd
       -0.34814587 0.25272533 -0.30643034 -0.057789598
0001a0 be e2 d0 bd e8 60 0b 3e 69 b1 22 3e 4e f6 3d be
       -0.10199498 0.13611186 0.15887989 -0.18550989
0001b0 7c f2 74 bd 3d b1 96 3e f0 28 c2 bd e4 01 fb 3c
       -0.059801564 0.29432097 -0.094804645 0.03064055
0001c0 09 20 43 be c1 6d 09 3e ea c1 2f be 8f 5a bf 3c
       -0.19055189 0.13420774 -0.17163816 0.023358611
0001d0 ed 55 d8 bd a2 da 84 3c 62 1c 4c 3e ba 25 dd 3d
       -0.10563264 0.016217533 0.19932702 0.107982114
0001e0 d9 f1 ca 3c 1c 65 4a bd 9f 15 73 be 1c 67 f5 3d
       0.024773525 -0.04941283 -0.23738717 0.11982557
0001f0 84 c4 86 be fa 7b 7c bd 05 93 77 be 30 99 b4 3d
       -0.26321805 -0.06164167 -0.24177177 0.08818281
000200 bd eb 6e 3e 9d 8a 26 3e 39 08 48 3d 78 ff b4 bc
       0.23332115 0.16263814 0.048835967 -0.022094473
000210 ad 02 fd bd df 40 16 bd 3a f5 31 be 2e 8d 35 3e
       -0.12354026 -0.03668296 -0.17378703 0.17729637
000220 dd e7 82 3c 8c 0c 2c be 36 22 f3 bd 9a 85 ac 3c
       0.015979702 -0.16801661 -0.118717596 0.0210598
000230 ee 02 59 3e 77 7e b2 be 71 46 b1 3d b9 ef 71 3e
       0.21192524 -0.3486211 0.08656014 0.23626603
000240 9e 97 c8 bd 80 6b 7c be 70 a3 96 bd 31 db 8c 3e
       -0.09794544 -0.24650383 -0.07355392 0.2751098
000250 4b 50 42 3e de 2e ef ba 48 54 35 3c f3 0d c6 be
       0.18975942 -0.001824822 0.0110674575 -0.38682517
000260 9e 83 57 3e c5 d0 af be f4 aa a8 be e5 a2 2f 3e
       0.21046302 -0.34338966 -0.32942927 0.17151983
000270 5a fe 0a be c0 18 93 be 63 23 14 3d 19 e4 dc 3e
       -0.1357359 -0.2872982 0.03616656 0.43142775
000280 1c ab a5 bd 86 86 a8 be ac db 5c bd 1a 21 46 3e
       -0.08089277 -0.32915133 -0.053920433 0.19348565
000290 98 79 d5 3c 8b f1 1a 3e d0 18 f0 bd 7f 93 05 3f
       0.026058957 0.15131204 -0.117234826 0.52178186
0002a0 67 cb 55 be f7 a1 2a 3e 67 86 f5 bd b1 47 84 3e
       -0.20878373 0.16663347 -0.11988526 0.25835946
0002b0 76 bd fa bd db 93 09 be be 5b a7 be c0 9c 52 be
       -0.12243168 -0.13435309 -0.3268718 -0.20567608
0002c0 87 6e ac be 26 9b 75 bd 13 a9 44 3e 1e f6 85 be
       -0.33678076 -0.059962414 0.19205122 -0.26164335
0002d0 72 7e c0 bd cb 1a 41 3e eb a0 09 be c0 15 ac be
       -0.093991175 0.18857877 -0.13440292 -0.33610344
0002e0 48 0d 8c be 53 d8 5c bc 6a 5d 32 be 58 fd b1 bc
       -0.27353883 -0.01347931 -0.17418447 -0.021727249
0002f0 51 7e d1 3d bb c5 4d bd 68 dd 13 3d 75 59 4d 3e
       0.10229171 -0.0502374 0.03609982 0.20053656
000300 97 5c 11 3e 2c 8f 17 be 05 50 a5 3e 15 3f 04 bc
       0.14195476 -0.1480071 0.32287613 -0.008071681
000310 91 06 ac 3e bd ac 7b 3e 04 f1 ba bd 66 c1 5f 3e
       0.3359876 0.24577613 -0.09128001 0.2185112
000320 cf 0e a6 be cd 8b 15 3e a9 8e 7d be 5c 36 9b 3d
       -0.32433173 0.14604111 -0.24761452 0.075787276
000330 fb 81 8a be 04 e7 5e 3d 9e f3 81 bc e8 39 8f be
       -0.27052292 0.054419532 -0.015863236 -0.27973866
000340 ba 0d 94 3d 26 48 cf 3d 50 a0 30 be 4f 46 82 be
       0.07229181 0.10121183 -0.17248654 -0.25444266
000350 bf 46 1d 3e b6 f9 f7 3d 26 18 3c bd 63 e9 e2 3c
       0.15359019 0.121081755 -0.045921467 0.027699178
000360 27 4f 20 be f2 86 4d be 40 3e 23 bd 61 06 9a bd
       -0.15655194 -0.20071009 -0.039854288 -0.07520748
000370 e9 8a 46 be d1 e5 5e 3e 34 c6 13 3e 1e 35 bd bc
       -0.19388928 0.21767356 0.14431077 -0.023096617
000380 63 2e e3 3e ab f5 02 be 9a f9 e6 3e d3 18 95 3e
       0.44371328 -0.12789027 0.45112306 0.29120502
000390 e8 d2 b6 bd 59 2c 20 be a9 39 cd 3d 25 c8 db 3e
       -0.08926946 -0.15641917 0.100207634 0.42926136
0003a0 72 ac 50 be 3c fa 16 3e 56 39 5d be dd 49 1a bd
       -0.20378283 0.14743894 -0.21603903 -0.037668098
0003b0 6d 28 f5 bd f2 13 da 3d 3c a4 83 3d 01 2d 3c be
       -0.11970601 0.106483355 0.064278096 -0.18376543
0003c0 3b ff 81 bc c9 1d c8 3e 0f dd 0b 3e d7 66 0d 3e
       -0.015868774 0.39085224 0.13658546 0.13808762
0003d0 f0 96 cf be 56 0d 36 3c 12 e1 8e bb 2f 61 3e bd
       -0.40544844 0.011111578 -0.0043603266 -0.0464794
0003e0 c8 d2 29 3b d1 21 0b 3e 14 d8 b0 be ae 8c b6 bc
       0.002591299 0.13587119 -0.34539855 -0.022283878
0003f0 8c 5a 1b bc 61 7f 1a be 9c d5 09 be 49 0a 53 be
       -0.009482037 -0.15087654 -0.13460392 -0.20609392

linear2.weight f4 [3, 256]
000000 6c dc bf ba a6 0f e1 3b 2a f9 73 be 85 1d 92 3e
       -0.0014637834 0.0068683205 -0.23825517 0.28538147
000010 4d 95 11 be 67 61 fb be 5b ed bd 3e 0a 23 08 3f
       -0.1421711 -0.4909775 0.3709515 0.53178465
000020 f2 b9 44 bd 00 62 9a 3d bf a6 9d 3b 2e 13 8a bc
       -0.048028894 0.07538223 0.0048111374 -0.016854849
000030 98 fc 06 3e b0 c7 63 be 55 46 5d be 85 fa e5 bd
       0.13182294 -0.22244143 -0.21608861 -0.112294234
000040 58 52 d8 bc 18 7b 0b be 57 b6 64 be 7f b5 ba bd
       -0.026406452 -0.13621175 -0.22335182 -0.09116649
000050 7a e6 47 3e d8 4f 17 be 96 52 48 3d bc b7 91 3c
       0.19521514 -0.14776552 0.048906885 0.017787807
000060 63 e8 0a be e4 0a 35 bd 29 5f 09 3f a9 47 f1 bd
       -0.13565211 -0.04419984 0.5366083 -0.11781246
000070 6d 42 50 be 97 96 ad bd 13 d0 6d 3d 11 94 da 3c
       -0.2033784 -0.08475988 0.058059763 0.026681932
000080 50 9e 77 3e 1c 49 b8 bc ef 75 a2 3d b9 81 d7 bd
       0.24181485 -0.022495799 0.0793265 -0.105227895
000090 40 22 0e bc cc 65 16 3c bc f8 22 be c4 df c8 3d
       -0.008675158 0.009179544 -0.15915197 0.09808305
0000a0 e4 28 97 3d bd d8 4d 3e 4d 69 28 be a0 c7 8d 3d
       0.07380846 0.2010221 -0.16446419 0.06922841
0000b0 53 27 fa 3e 15 1d 80 3e 37 ec 41 3d 58 06 bb 3d
       0.48858127 0.25022188 0.047344413 0.09132069
0000c0 95 49 67 3e c4 c8 75 be 64 b0 a7 bc 6a 06 a6 bb
       0.22586663 -0.24002367 -0.020469852 -0.0050666826
0000d0 e9 0a d5 be 78 52 59 bc 91 ca fd bc b2 6a 82 3e
       -0.41609886 -0.013264291 -0.03098038 0.25472027
0000e0 32 ab 15 bd 79 71 a9 3e 8c 9c a3 3e 51 1a d8 3c
       -0.036540218 0.33094385 0.31955373 0.026379736
0000f0 94 f3 0f be 32 83 40 bc 7b fe cc bd 80 2c 8c 3e
       -0.14057761 -0.011750029 -0.10009476 0.273777
000100 31 a4 ba 3e 8b 04 e5 be 91 c7 15 be 85 6f b9 3d
       0.36453393 -0.4473003 -0.1462691 0.09054474
000110 94 6d 67 bd ee 66 7e be 0c b1 82 3e f0 18 71 be
       -0.056500986 -0.24843952 0.255257 -0.23544669
000120 68 61 ec bb 2c 1d 0d 3e 36 51 ed 3d 36 66 1e bc
       -0.00721376 0.1378066 0.115877554 -0.009667924
000130 b6 47 6b 3d ef 0e 34 bd b1 17 81 bd e8 f4 df bd
       0.057441436 -0.043959554 -0.06303347 -0.10935384
000140 4d 10 14 3d 74 98 76 3e 08 52 2d 3e 74 c1 f4 bd
       0.036148358 0.24081594 0.16925824 -0.11950961
000150 7d 12 2e bd 1a 46 85 3e 8e 6e 2f be ed e0 92 3e
       -0.0424981 0.26030046 -0.17132017 0.2868723
000160 a2 41 12 3e bb 0e a6 3c d2 68 ab 3d 64 a6 98 be
       0.1428285 0.020270696 0.08369602 -0.29814446
000170 6e c0 94 3d 4c 56 e3 be 9c cd 7a bd f7 84 f1 ba
       0.072632656 -0.44401777 -0.06123124 -0.0018426467
000180 09 58 3e be 0a e4 73 3d 0e b4 f6 3c a2 68 df bd
       -0.1858827 0.059543647 0.030115154 -0.10908629
000190 98 50 be bc 50 45 30 3e 52 6e 00 be 56 83 2b be
       -0.02323179 0.1721394 -0.12542084 -0.1674932
0001a0 50 ac 36 be 56 84 60 be cf b7 80 be 2e bb 5f be
       -0.1783917 -0.21925482 -0.25140235 -0.21848747
0001b0 92 21 07 3d f2 1d a5 3e 4d 12 85 bc 59 dd 09 3e
       0.032991 0.3224941 -0.016244078 0.13463344
0001c0 74 e5 14 bb 5d d2 42 bd 09 54 13 bb 7f 45 88 be
       -0.0022719773 -0.0475639 -0.0022480509 -0.2661552
0001d0 94 12 93 3e 69 79 12 3e 49 97 03 be cc a5 60 be
       0.2872511 0.14304127 -0.1285068 -0.21938246
0001e0 84 00 d9 3d 6e 03 71 3b 97 00 40 3e 8c a5 82 3e
       0.105958015 0.0036775726 0.18750225 0.25516927
0001f0 0e 39 64 3c 41 25 c4 bc 44 e9 ef bc 45 e4 26 3c
       0.0139296185 -0.023943545 -0.029286034 0.01018626
000200 41 44 d6 bd 8e 7f a0 bd bb 11 03 bf d6 94 6e 3b
       -0.10462237 -0.07836829 -0.5119893 0.003640463
000210 98 b2 eb be 2f b2 71 bc f0 e9 6e be 0e 9a 14 be
       -0.46034694 -0.014751955 -0.23331428 -0.14511892
000220 8d 81 f7 3d ff 95 01 3e 24 9e 81 3c 56 a3 fb bc
       0.12085257 0.12654875 0.015822478 -0.030717533
000230 7d b6 5e 3e 88 b8 8c 3e 82 70 57 3e 5f eb 87 3e
       0.21749301 0.27484536 0.21039012 0.2654676
000240 c5 d7 7d 3e 64 47 41 be fd 54 d1 3c f3 6c d5 3d
       0.24789341 -0.1887489 0.02555322 0.10421171
000250 f6 54 7b 3e 4a 61 06 bd 1e 1c cf bd ab 07 21 bd
       0.24544129 -0.032807626 -0.10112785 -0.039313953
000260 df 51 42 be 29 fe 3f 3c 38 db 9e bd ee 62 f9 bd
       -0.18976544 0.011718311 -0.077566564 -0.121770725
000270 73 a2 ca bd 4b fc 89 3e b8 06 01 bd 27 d2 5e bc
       -0.09894266 0.26950297 -0.031500548 -0.013599909
000280 e8 a2 9b bd 61 03 09 be aa 08 65 3e 37 0c 9e 3d
       -0.07599431 -0.13380195 0.22366586 0.077171735
000290 a0 71 b3 3d 88 e9 86 3d d9 a2 94 bd eb 2a 80 3e
       0.087619066 0.06587511 -0.07257623 0.25032744
0002a0 7e 87 20 be 6d 35 d9 bd 03 83 88 3e 3f e7 92 3d
       -0.15676686 -0.10605893 0.26662454 0.07173013
0002b0 87 7f a6 3e 4d 36 9d 3e 42 f0 22 bd 57 1e 34 3a
       0.3251917 0.3070549 -0.03977991 0.0006870976
0002c0 67 b3 55 3e ee 14 a7 3d 99 45 5f be db 9d 05 3d
       0.20869218 0.08158289 -0.21803893 0.032621246
0002d0 05 c1 a5 3c 8b fb 15 3e 77 04 02 bc fc 20 8c bd
       0.02023364 0.14646737 -0.007935635 -0.06842229
0002e0 db ca 0c be de 20 64 3c 0a ae 65 3d 65 5e 21 bf
       -0.13749258 0.013923852 0.05607418 -0.6303466
0002f0 ea b3 95 be 0e ec 0f be b7 0d 07 bd 5f b6 11 be
       -0.29238826 -0.14054891 -0.032972064 -0.14229725
000300 fe c8 3f be 6b 61 06 3e 6b d9 5d bc f9 99 6b 3e
       -0.18729016 0.131231 -0.013540606 0.23007955
000310 4d bb 48 3d d0 6b 23 be 59 6a be 3a 1f 70 67 3e
       0.04900675 -0.15959096 0.0014527544 0.22601365
000320 42 ea 54 bd 86 f9 d2 3e 76 ce a3 be 00 d0 1e 3e
       -0.05198122 0.41205996 -0.31993455 0.15509033
000330 eb e2 2d 3d 7f 8f 9e 3d 25 fd 2d be 3c a5 67 be
       0.042452734 0.077422135 -0.16991098 -0.22621626
000340 83 5f c2 3e 2a 52 ad bd e7 74 9a be 25 d0 02 be
       0.37963495 -0.08462937 -0.30167314 -0.12774713
000350 d9 f3 cf be 3c d3 f1 bd 20 e8 12 3e a0 59 79 3d
       -0.40615728 -0.11807868 0.14346361 0.06087649
000360 d5 25 b5 bd 7e 84 3d bf 5e 3b 3b 3d 88 e9 f8 bc
       -0.088451065 -0.7403029 0.045710914 -0.030384794
000370 6f e8 b2 bd cf 23 04 3e 5c fc 09 be 41 9b f7 bd
       -0.087357394 0.12904285 -0.13475174 -0.12090159
000380 a4 79 34 bd 73 5f 00 be 85 a8 5f bd 0f 6d 1b 3e
       -0.044061318 -0.12536411 -0.054604072 0.15178321
000390 8d d6 92 3e 9d e5 cb 3d 6f 40 a0 3d 7f 66 c8 3e
       0.28679314 0.09955905 0.0782479 0.39140698
0003a0 ec 49 bb bd 41 06 ac 3e 52 40 e1 bd bd 39 1c 3d
       -0.09144959 0.3359852 -0.10998596 0.038141
0003b0 80 5c c2 be aa 3e b0 bb b8 7f 1d be 38 5c 7a be
       -0.37961197 -0.005378564 -0.15380752 -0.24449241
0003c0 f4 ba a1 bb 20 94 d9 3d d8 c8 f8 3e ae 89 3c be
       -0.0049356166 0.10623956 0.48590732 -0.18411896
0003d0 2b 30 b3 3d b8 17 d5 bd ed 8a 6d be 4e e0 15 3e
       0.08749422 -0.104049146 -0.23197527 0.14636347
0003e0 a6 83 4d bb 26 22 37 be a3 10 33 be 9d 96 fb 3d
       -0.0031358986 -0.1788412 -0.17486815 0.122845866
0003f0 44 a4 90 3b 2a 39 ca be 70 44 cf bd e5 3a 09 3d
       0.0044141132 -0.39496738 -0.10120475 0.03350343

linear2.bias f4 [3]
000000 88 c4 78 3d e1 8b 06 be 78 9d ee bd
       0.0607343 -0.13139297 -0.116511285
